regression_NMLP.onnx (onnx, 3339 bytes, 4 tensors)

f1linear1.weight f4 [1, 14]
0	0xbc2d7a28	-0.010588206
1	0xbae6d5c1	-0.0017611311
2	0xbbe843c0	-0.0070881546
3	0x3bed0f90	0.007234521
4	0xbb5ffe81	-0.0034178796
5	0x3b6f48d4	0.0036511915
6	0xbabca4d0	-0.001439238
7	0x3c0130bb	0.007885153
8	0x3bd975d4	0.0066363607
9	0x3b933361	0.004492209
10	0x3b180363	0.0023195378
11	0x3e3579b2	0.17722204
12	0x3f207a04	0.6268618
13	0x3aaee88f	0.0013344454

f2layer1.weight f4 [32, 14]
0	0xbd90e0d8	-0.070741355
1	0xbe8b9e70	-0.27269316
2	0xbe649cbb	-0.22325413
3	0x3e546067	0.207399
4	0x3d1f3dec	0.038877413
5	0xbedd8504	-0.43265545
6	0x3c9388da	0.018009592
7	0x3db8cb55	0.090231575
8	0x3e68ee92	0.22747257
9	0xbd940814	-0.07228103
10	0x3e06542c	0.13118047
11	0xbd5dfd30	-0.054196537
12	0x3e1aa19e	0.15100715
13	0xbdf0fb32	-0.11766662
14	0xbe4d3a61	-0.20041801
15	0xbe538625	-0.20656641
16	0xbf18ce4e	-0.59689796
17	0xbf3b45b6	-0.73153245
18	0xbeb7f7c2	-0.35931212
19	0x3f3bc9f3	0.73355025
20	0xbf3284db	-0.6973397
21	0x3e3b1aa5	0.18271883
22	0x3e8388ac	0.2569021
23	0xbebcb433	-0.3685623
24	0x3dc3dc1a	0.095634654
25	0xbd8900e6	-0.066896245
26	0x3e1fcdc5	0.15605839
27	0xbdeb0b43	-0.114767574
28	0xbe095a76	-0.13413414
29	0x3dfa3bed	0.12218461
30	0x3d8b0e8a	0.067898825
31	0xbcdab9df	-0.026699958
32	0xbdaada5d	-0.08342431
33	0xbdf34fd6	-0.11880462
34	0x3dfb243d	0.12262771
35	0x3e1f6634	0.15566331
36	0x3d404396	0.046939455
37	0xbe33ec99	-0.17570724
38	0xbd01e438	-0.031711787
39	0xbe8acad3	-0.27107868
40	0xbdd5dba8	-0.10442287
41	0x3e1736a5	0.14766939
42	0xbe21f618	-0.15816534
43	0x3e6c1de7	0.23058282
44	0x3f0a0010	0.53906345
45	0xbf7768b5	-0.96644145
46	0xbcd2ad33	-0.025717353
47	0x3f805c25	1.002812
48	0xbf592691	-0.8482447
49	0xbdb8c86d	-0.09022603
50	0xbf83e706	-1.0304878
51	0x3ed70334	0.4199463
52	0xbf1388fe	-0.5763091
53	0xbd89e682	-0.06733419
54	0xbd735007	-0.059402492
55	0x3f2a1ee7	0.66453403
56	0xbe169b6e	-0.14707729
57	0x3d3eff75	0.04663034
58	0xbe1b77ff	-0.15182494
59	0x3e25fbdf	0.16209362
60	0x3e71ee37	0.23626028
61	0xbe875945	-0.26435295
62	0xbd14d378	-0.036334485
63	0xbe31e837	-0.17373739
64	0xbe5f9c2a	-0.21836916
65	0x3e8a8a74	0.27058756
66	0xbe897e8c	-0.2685436
67	0xbe483ec9	-0.195552
68	0xbc104b5f	-0.008807032
69	0xbe2cd11d	-0.16876645
70	0x3f16de07	0.58932537
71	0x3e08caaa	0.1335856
72	0x3e2c761d	0.16841932
73	0x3eb91ea7	0.36156198
74	0xbf236e53	-0.63840216
75	0xbf1bc473	-0.6084663
76	0x3f8bcd64	1.0922055
77	0xbe00cefb	-0.12578957
78	0xbe1aafc3	-0.1510611
79	0x3f2f4f2d	0.6848019
80	0xbecbf48a	-0.39835006
81	0x3ea4e472	0.3220554
82	0x3e4ed0ae	0.20196792
83	0xbe21da9f	-0.15806054
84	0xbf029f6b	-0.510245
85	0xbeacba65	-0.33735958
86	0xbeab0064	-0.33398736
87	0xbe306815	-0.17227204
88	0x3e9bcf3a	0.3043154
89	0xbe4deea0	-0.2011056
90	0xbdb347eb	-0.08753952
91	0x3d52a404	0.05142595
92	0xbec85869	-0.39129952
93	0x3ed6fcd3	0.41989765
94	0xbe10a064	-0.14123684
95	0xbe8cd068	-0.2750275
96	0x3b422296	0.0029622666
97	0xbef0b28f	-0.4701123
98	0x3b887ca3	0.0041652485
99	0xbd8d6927	-0.06904822
100	0xbd0bc169	-0.034119997
101	0xbc05c88c	-0.00816549
102	0xbd8e1ec8	-0.06939465
103	0xbd909a50	-0.07060683
104	0x3d957fbb	0.07299753
105	0xbce336c9	-0.027736085
106	0x3d20b77e	0.03923749
107	0x3d1e205d	0.038605083
108	0x3b332c6b	0.0027339708
109	0x3d01a06f	0.031647142
110	0xbc854a81	-0.016270878
111	0xbcb392ba	-0.02192055
112	0x3e23b3e9	0.15986599
113	0x3d4713eb	0.04860298
114	0x3c352b00	0.011057615
115	0x3d072c9d	0.03300153
116	0xbcb1f4cf	-0.02172318
117	0xbc10159a	-0.008794213
118	0x3e3e9292	0.186106
119	0xbcf798be	-0.0302242
120	0x3a80ec0d	0.0009835974
121	0x3e350b5a	0.17680112
122	0x3d2f6e2a	0.04282967
123	0xbd3a8b2d	-0.045542885
124	0x3da5d39e	0.080970034
125	0x3c8267ef	0.0159187
126	0x3e3a0027	0.1816412
127	0xbf1d6b67	-0.6149201
128	0x3f4398c5	0.7640498
129	0xbe2835a3	-0.16426711
130	0x3e5c885c	0.21536392
131	0x3f2a6df7	0.66574043
132	0xbeb0530f	-0.3443837
133	0xbf4bcb00	-0.7960663
134	0x3ed64676	0.41850632
135	0xbc94e6b7	-0.01817642
136	0xbdaad7a2	-0.0834191
137	0xbf193acf	-0.5985536
138	0x3ea22d16	0.31675023
139	0x3e225901	0.15854265
140	0x3eb76db4	0.35825884
141	0x3de5d44f	0.11222135
142	0x3e44e2ab	0.19227092
143	0xbf0eaac3	-0.5572931
144	0xbe1c5e43	-0.15270333
145	0x3c9ec4dd	0.019380981
146	0x3e0d170c	0.13778323
147	0x3ea1d366	0.31606597
148	0xbeb2ab7b	-0.34896454
149	0xbefaf59e	-0.49015516
150	0xbeb461af	-0.35230777
151	0xbe607a35	-0.21921618
152	0x3f483b20	0.7821522
153	0xbc41a656	-0.011819443
154	0x3e1795bd	0.14803214
155	0xbded17b5	-0.115767874
156	0xbe97b5a3	-0.29630765
157	0xbe55015a	-0.20801297
158	0x3dad3c95	0.08458821
159	0xbede8e8f	-0.4346814
160	0x3e16c2bb	0.14722721
161	0xbd8c5437	-0.06852
162	0xbe253cd9	-0.16136493
163	0xbed91d35	-0.42405096
164	0xbda21710	-0.07914555
165	0x3e0bfa91	0.13669802
166	0x3f2d5d65	0.67720634
167	0xbd8fd9be	-0.07023953
168	0x3cc65c7c	0.024214022
169	0xbd1fba52	-0.03899605
170	0x3b5c65bd	0.0033629977
171	0x3d951525	0.072794236
172	0xbb53a25e	-0.0032292823
173	0xbd833480	-0.06406498
174	0x3d724191	0.05914456
175	0x3da368ab	0.07978948
176	0x3b80f572	0.0039355094
177	0xbc39be9f	-0.0113369515
178	0x3db1a900	0.08674812
179	0xbd8dce27	-0.06924086
180	0x3d943a20	0.07237649
181	0xbc5308fa	-0.012880558
182	0xbe70ee07	-0.235283
183	0xbe82fea0	-0.25584888
184	0x3e3efa78	0.18650234
185	0xbf1fdb0a	-0.624436
186	0x3dd4a94d	0.10383854
187	0x3e34a59a	0.17641297
188	0x3d9d9380	0.07694149
189	0xbd0ea053	-0.034820866
190	0xbefe4590	-0.49662447
191	0x3e80e6b3	0.2517601
192	0xbe16988d	-0.14706631
193	0x3eb455c3	0.3522168
194	0x3f1bccf4	0.6085961
195	0x3e98a154	0.29810584
196	0x3e0c5e84	0.1370793
197	0xbeffd6ca	-0.4996856
198	0xbf131205	-0.5744937
199	0x3d437179	0.047715638
200	0x3d6ef69e	0.05834066
201	0xbf9207b6	-1.1408603
202	0x3ed8cd79	0.42344263
203	0x3e290d68	0.1650902
204	0x3e9abf76	0.30224198
205	0xbefde9ce	-0.4959244
206	0x3cf9c225	0.030488083
207	0xbead73b5	-0.3387734
208	0x3ec54634	0.38530123
209	0x3d24a833	0.04019947
210	0xbf013410	-0.50470066
211	0xbe52d416	-0.20588717
212	0xbf29efcb	-0.6638152
213	0xbf901155	-1.1255289
214	0xbec91b79	-0.39278772
215	0x3f290d7a	0.6603619
216	0xbf517277	-0.81815284
217	0x3e9f00c6	0.31055278
218	0x3d0a838a	0.03381685
219	0xbeaa127e	-0.33217233
220	0x3e47ac16	0.1949924
221	0x3d86c194	0.06579891
222	0x3dc9f644	0.098614246
223	0xbe83a211	-0.25709584
224	0xbee09373	-0.43862495
225	0xbe2e8203	-0.17041783
226	0xbf2a585b	-0.6654107
227	0xbf6cc985	-0.92494994
228	0xbe8d976b	-0.27654585
229	0x3f13c527	0.57722706
230	0xbf227099	-0.6345306
231	0x3e9e8550	0.30961084
232	0x3dafeb81	0.08589841
233	0xbeabf951	-0.3358865
234	0x3e236f05	0.1596032
235	0xbd8ba042	-0.06817676
236	0x3e20074b	0.15627782
237	0xbe39b303	-0.18134694
238	0xbdefb88d	-0.11705122
239	0xbf0c0c39	-0.5470615
240	0xbf040f9e	-0.5158633
241	0x3e340f21	0.17583896
242	0xbe72d4fb	-0.23714058
243	0xbeee3b5e	-0.4652967
244	0xbea46235	-0.32106176
245	0xbeb2d8f2	-0.3493114
246	0x3dc94455	0.098274864
247	0xbd70acdb	-0.058758598
248	0x3e41a203	0.18909459
249	0x3e9d2757	0.30694076
250	0x3e03df0d	0.12878056
251	0xbc488ffd	-0.012241361
252	0x3db832ed	0.08994088
253	0xbd011441	-0.031513456
254	0xbe4c9bf7	-0.19981371
255	0xbeae6b9f	-0.34066483

f2layer1.bias f4 [32]
0	0xc048c675	-3.1371129
1	0xc039e493	-2.904576
2	0xc069e97a	-3.6548753
3	0xc06de993	-3.7173812
4	0xc044fed2	-3.078053
5	0xc066778e	-3.601047
6	0xc043ba0c	-3.0582304
7	0xc06085f1	-3.5081751
8	0xc05a9133	-3.4151123
9	0xc0471bcf	-3.1110723
10	0xc0339ea6	-2.8065581
11	0xc0325ff7	-2.7871072
12	0xc06fefee	-3.7490191
13	0xc03a405b	-2.910178
14	0xc05236f2	-3.2846036
15	0xc03916a5	-2.892007
16	0xc03deaeb	-2.9674633
17	0xc045c247	-3.0899827
18	0xc03c25c2	-2.9398046
19	0xc04bde5b	-3.1854465
20	0xc04bfad4	-3.1871843
21	0xc02bac3e	-2.6823878
22	0xc038bc3e	-2.8864894
23	0xc05d4fbd	-3.4579918
24	0xc0832425	-4.098162
25	0xc0513605	-3.268922
26	0xc043d2a1	-3.0597308
27	0xc0365974	-2.8492098
28	0xc036042a	-2.8440042
29	0xc05dfdbb	-3.4686115
30	0xc0574c6c	-3.3640394
31	0xc05be2bb	-3.4357135

f2layer2.weight f4 [1, 32]
0	0x3d0b1bf2	0.033962198
1	0xbd4b603c	-0.049652323
2	0x3d452bd5	0.048137505
3	0x3dda061e	0.10645698
4	0xbd0c95ab	-0.034322422
5	0xbdd66f72	-0.10470475
6	0xbd892508	-0.06696516
7	0x3aac7997	0.0013158795
8	0xbb911ae8	-0.0044282563
9	0xbd8efbe6	-0.069816396
10	0x3d4f898f	0.050668295
11	0x3d44a054	0.048004463
12	0x3c452910	0.012033716
13	0x3d7ab2b2	0.061205573
14	0x3daa1978	0.08305639
15	0xbd384927	-0.04499164
16	0xbd7ac395	-0.061221678
17	0x3d0228df	0.03177726
18	0x3d52fc94	0.05151041
19	0x3db2842c	0.08716616
20	0x3cf566fb	0.029956331
21	0x3cf46bca	0.029836554
22	0x3d3d0577	0.04614779
23	0x3c8fc603	0.017550474
24	0x3a916679	0.0011093161
25	0x3c886af2	0.016652558
26	0xbb7f26ee	-0.0038933116
27	0xbd60b616	-0.05486115
28	0x3d5e0e33	0.05421276
29	0x3b040f86	0.0020150854
30	0x3b7575e2	0.0037454297
31	0x3a03da1e	0.00050297554
