regression_DL_net.onnx (onnx, 4159 bytes, 5 tensors)

layer1.weight f4 [32, 14]
000000 1b ec 20 be 22 29 7d bd e0 50 df bd a0 39 7b bd
       -0.15715067 -0.061806805 -0.109040976 -0.061334252
000010 65 23 61 3c 4b 15 aa be ca 9f f2 3e e6 34 ae 3e
       0.013741349 -0.3321937 0.47387534 0.34024733
000020 45 08 ab bd a0 74 60 be 8c 02 90 bd fc ea b4 3e
       -0.08351187 -0.21919489 -0.07031736 0.3533553
000030 ad d1 58 3f 76 31 15 bd 72 11 0c bd 92 3c 45 bd
       0.8469494 -0.036424123 -0.034196325 -0.048153467
000040 f3 e9 9d 3d 59 a5 b1 bd 53 27 99 bd 06 27 06 be
       0.07710638 -0.08674116 -0.074782036 -0.13100824
000050 f8 2d b3 3d 31 8b 20 3d d4 8b f9 bc 49 f9 04 be
       0.08749002 0.039195243 -0.030462183 -0.1298572
000060 af c6 96 3c ac b8 d5 3d c4 62 49 3f a3 c5 b6 3d
       0.018405287 0.10435614 0.7866633 0.08924415
000070 69 77 d2 bc 3a e0 0d bd ec f8 61 bc 38 fa 84 3d
       -0.025691705 -0.034637667 -0.013792258 0.06493038
000080 b2 a4 5d 3d 0e 2f cd bc 08 25 51 bd e2 c1 91 3d
       0.054112144 -0.025046851 -0.051060706 0.07117058
000090 29 52 8b bd 7a 30 5b bd ce 99 62 3c a1 01 7c 3d
       -0.0680278 -0.053513028 0.013830615 0.06152499
0000a0 85 30 fb 3e b6 01 1f 3b 88 75 5c be 4a 56 59 bd
       0.49060455 0.0024262494 -0.2152921 -0.053060807
0000b0 a8 5d 6b 3d 1a 08 19 bd c7 b9 a4 3c 04 91 db 3d
       0.057462364 -0.037361242 0.020108117 0.10721019
0000c0 c8 c5 d2 bc 4e 69 9c 3d 3d c8 11 be b2 fe 00 be
       -0.025729075 0.07637273 -0.14236541 -0.12597159
0000d0 2e 1b 56 be 26 fe b6 be 5b d5 83 bf 87 2f 79 3d
       -0.20908806 -0.35740775 -1.0299486 0.06083634
0000e0 e1 ef 5b be bc 48 43 3e 42 ad bf 3d 5b 99 a5 bd
       -0.21478225 0.19070715 0.09359218 -0.08085891
0000f0 16 df 86 3d 7c e7 a4 3e bd f0 1f bd 6a 0c 68 bd
       0.06585519 0.3220786 -0.039047945 -0.056652464
000100 18 09 6b 3d f7 c4 27 3d 1b 19 16 be 87 e5 e0 3e
       0.05738172 0.040959325 -0.14658014 0.43925115
000110 f8 b4 41 3f 64 0a 38 bc e6 06 7a bb 7a 43 a5 3b
       0.7566676 -0.011232946 -0.0038151084 0.005043444
000120 54 1b ce 3a 37 26 1e 3d f0 1f 49 3c 42 ce 06 bd
       0.0015724697 0.038610663 0.012275681 -0.032911547
000130 75 71 d2 3a 8f 0e 76 3c 8d 17 c3 bc c2 9b 63 bc
       0.0016055541 0.0150181195 -0.02381494 -0.013892116
000140 d9 74 71 bd d2 7e 08 3e 9b 27 d2 3e 99 86 9d 3c
       -0.058949325 0.13329628 0.41045842 0.01922922
000150 17 45 68 bd 8f 3c 30 3d ff 28 7d bd 26 c4 b4 3c
       -0.056706514 0.043026503 -0.061806675 0.022066187
000160 89 69 07 3d b2 ea c1 bc ed 4b 3f 3c 3e 73 cf 3c
       0.03305963 -0.023671482 0.011675817 0.025323506
000170 a4 a7 08 3c bf e4 e2 3d 84 39 07 bd b8 b2 66 3e
       0.00834075 0.11078786 -0.033013836 0.22529113
000180 18 49 5d 3f cf 3d 36 bc 96 c3 05 3e 39 db 18 3d
       0.8643966 -0.011123135 0.13062891 0.037318442
000190 15 68 bd bd 5e 6e 8e 3d c3 c6 ff bc ff 97 bd bd
       -0.09248368 0.069546446 -0.031222707 -0.092575066
0001a0 dd ee 49 be a4 27 4b bd 94 c9 1d be af ca 79 be
       -0.19720025 -0.04959835 -0.15408927 -0.24393724
0001b0 5e 1e 60 3d c7 17 8e 3e 2c 31 43 3f 66 95 0b be
       0.05471646 0.27752516 0.76246905 -0.1363121
0001c0 57 e2 c5 bd 7c 88 e2 bd 0c 1e 46 bd ea 31 36 3d
       -0.096623115 -0.110611886 -0.0483685 0.044481196
0001d0 28 56 41 bd 9d 96 34 3d 9f 7b e5 bc 6b 3f 7b 3c
       -0.047201306 0.04408895 -0.028013049 0.015334944
0001e0 e3 84 4f be 84 f3 85 bc 75 5b 93 bd 13 2a 9c 3e
       -0.20265536 -0.016351469 -0.071951784 0.3050085
0001f0 25 45 5d 3f 33 69 8c 3c 27 df 0c 3e 76 c5 63 3d
       0.8643363 0.017140007 0.13757001 0.055608235
000200 50 47 e0 bd aa 05 81 bd 40 5f d8 bd 94 34 0a 3e
       -0.10951102 -0.062999085 -0.105650425 0.1349662
000210 60 a6 b9 bd 6f 3f a0 bd 0c 80 5d bd 2c 02 c7 bd
       -0.09064937 -0.07824599 -0.054077193 -0.09717211
000220 6f 13 f1 bd 6c ae 51 3e f9 20 74 3f dc 5c ec 3d
       -0.11771285 0.20476693 0.9536281 0.11541149
000230 c8 e8 64 bd 94 4a ec bb 71 a2 2b 3e ab bc b8 3d
       -0.05588606 -0.007211039 0.16761185 0.090203606
000240 78 fb 9f 3d 1b 1f ec bd 94 35 0e 3b 0f 2b 37 3d
       0.07811636 -0.115293704 0.0021699416 0.0447188
000250 56 24 c7 bd 32 5c 8c 3e b3 f8 7f bd ec e5 53 3d
       -0.097237274 0.2741409 -0.062493037 0.051732942
000260 52 05 79 3f 23 b5 f3 bd 94 15 ee 3c d6 27 84 bd
       0.97273743 -0.118997835 0.029063024 -0.064529106
000270 f1 1e 6c 3d d0 46 31 be c7 99 3f be bb 51 35 3d
       0.057646696 -0.17312169 -0.18711005 0.044267397
000280 85 91 80 bd 00 82 50 3d 8b e4 ef bd 14 de 8a bc
       -0.06277756 0.050905228 -0.11713513 -0.016951598
000290 ba d2 a8 bd f0 7c c6 3d 86 38 11 3f 48 c8 58 3d
       -0.08243318 0.09691799 0.5672687 0.052925378
0002a0 d2 f9 31 3d a0 73 8f 3d e1 0b 08 3e 11 fc 41 3e
       0.043451138 0.070044756 0.13285781 0.18943812
0002b0 39 e8 e9 bd 67 ed f3 3d 7a 79 7d 3b 40 03 bb 3c
       -0.11421246 0.11910515 0.0038677142 0.022828698
0002c0 3d fa 9a 3d 30 2d da 3d 78 da a5 3d 6e eb bb 3d
       0.075672604 0.1065315 0.0809831 0.09175764
0002d0 3e 69 80 3f a3 a3 28 bc 10 47 01 3e e4 fa 05 bd
       1.0032117 -0.01029292 0.12624764 -0.03270997
0002e0 1e ca ab bd 0b ec e8 3d 6e 55 f6 3c 55 69 55 bd
       -0.0838816 0.113731466 0.030070033 -0.052102406
0002f0 6e c1 e1 3c 88 b0 8d bd 2e d1 71 3e b6 09 35 3d
       0.027558055 -0.06918436 0.23614952 0.044198714
000300 1b 19 97 bd df b3 64 3d c5 a8 94 3f 5e 2a 5e be
       -0.07377835 0.0558356 1.1614004 -0.2169585
000310 07 a4 1b 3d 64 7d 96 bd a2 2f db bd 9d f6 21 3d
       0.037998226 -0.07348135 -0.107024446 0.03954183
000320 5c 00 dd 3d 38 57 6e be ad 63 fc 3c 4c 54 36 3e
       0.10791084 -0.23275459 0.030809248 0.17805594
000330 5d 17 00 3e 22 9d 1c be a5 c9 c7 3b 33 02 70 3e
       0.12508912 -0.15294316 0.006097036 0.23438339
000340 7c 04 3b 3f 87 6a fb 3d 9c c5 88 bd 55 a5 f2 bd
       0.7305372 0.12276178 -0.06678316 -0.11847941
000350 63 60 b4 bc f3 05 21 3e 36 a7 c2 3d f0 b4 d4 3d
       -0.022018617 0.15724926 0.09504549 0.103860736
000360 72 a9 15 be d3 40 36 3d 26 da 56 3e f2 0c 88 3e
       -0.1461542 0.044495415 0.20981655 0.26572376
000370 e7 28 09 3e 71 dc 83 3e 99 5c 5b 3f a4 a7 b4 3d
       0.1339451 0.2575412 0.8568817 0.088210374
000380 5e 5e 6d 3c 23 42 d4 3d 9f f0 df 3d 0e aa a9 be
       0.014487831 0.10364177 0.10934567 -0.33137554
000390 10 ef d1 3d 4d f3 1f 3e 2c 7e d1 3d a1 4f b6 3d
       0.10250676 0.15620156 0.102291435 0.08901907
0003a0 5f 03 40 be 63 3b d0 bd 65 ab f0 bc 46 e3 01 3d
       -0.18751286 -0.10167577 -0.029378602 0.031710885
0003b0 f8 3b 43 3f a0 aa b2 bd d2 f4 f3 bd 5d 18 11 be
       0.7626338 -0.087239504 -0.1191193 -0.1416945
0003c0 89 f8 a2 bd a8 1a ff bd c1 68 ac bd 6f e8 96 be
       -0.079575606 -0.12456256 -0.08418418 -0.29474208
0003d0 7d a6 c8 3d 01 e2 3f bd 95 f7 9b bd 04 86 d1 bc
       0.0979738 -0.046846393 -0.07615582 -0.025576599
0003e0 cc eb 14 be 9e 70 7a 3e 49 63 59 3f 77 8d 67 3e
       -0.14543074 0.24457023 0.8491712 0.22612558
0003f0 f4 02 a0 bc 99 4a 6f bd 0f 39 bb 3d bb 46 b0 3d
       -0.019532658 -0.05842075 0.091417424 0.08607241

layer1.bias f4 [32]
000000 80 ae 32 be 40 82 e4 3e 04 cd 31 3f b0 7e 6f be
       -0.17449379 0.44630623 0.69453454 -0.23388171
000010 57 14 76 bc 9e 0e 3d 3f cd ce 73 3d 18 3f f8 bc
       -0.015019498 0.7385043 0.059523392 -0.030303523
000020 95 93 83 3d 84 8a f5 3c ff 12 f9 3d 7f 8d 19 3f
       0.064246334 0.029973276 0.12161826 0.5998153
000030 4a 30 1f 3e ed e8 c3 3d 51 b6 4a 3d dd 96 28 bc
       0.15545765 0.095659114 0.049490277 -0.010289875
000040 b6 21 57 be 3b b5 81 3e dc df 94 3e bf a4 01 3f
       -0.21008953 0.2533358 0.2907704 0.5064201
000050 4b 4c a5 bf 64 12 14 3f 51 34 1e 3e 70 cb 20 3e
       -1.2913908 0.5784056 0.15449645 0.15702605
000060 c7 f5 c8 3e 83 47 e3 3d cb 4a 38 3f 9e d2 2e be
       0.39250013 0.11097624 0.71989125 -0.17072532
000070 a7 dd 34 3e 3f 53 1f 3e 89 c4 d7 3e 64 0b 23 bc
       0.17662679 0.155591 0.42142132 -0.009951446

layer2.weight f4 [8, 32]
000000 38 d6 07 3e 23 3a eb 3d 28 02 ee 3d 2d 48 dd bf
       0.13265312 0.11485698 0.11621505 -1.7287651
000010 0a a9 e8 3d 51 45 a8 3d 95 05 a7 3d 7a c1 9f 3d
       0.11360367 0.08216346 0.081553616 0.078005746
000020 5b 5a 65 3d 34 4f c9 3d 6a 1b 92 3d c0 d1 c9 3d
       0.055994373 0.0982956 0.07134135 0.0985446
000030 7f be 85 3d ab 89 ca 3d de ee b8 3d 2a da 6b 3d
       0.06530475 0.09889539 0.09029935 0.057581104
000040 4c 59 24 3e ae 20 d8 3d f3 84 4a 3d ad 21 7a 3d
       0.16049689 0.10553108 0.049443197 0.061067272
000050 1f 45 2a c0 86 dc 76 3d a4 8a df 3d 76 3e ca 3d
       -2.6604688 0.0602689 0.109151155 0.09875195
000060 a3 9d ad be df 27 8b 3d 2a 61 04 3d d1 5e 94 3d
       -0.3390933 0.06794714 0.032319225 0.07244647
000070 68 09 8a 3d b8 90 c8 3d e2 3e ec 3d b9 82 f6 3d
       0.06740075 0.09793228 0.115354314 0.12036652
000080 54 cc 0a bd b7 68 2c be 99 ed 49 bd db 4c 18 be
       -0.03388627 -0.1683682 -0.049298856 -0.14873068
000090 ff 20 94 3b 57 46 89 bc 89 93 1a 3b 94 df 04 bd
       0.004520535 -0.016757173 0.0023586473 -0.032439783
0000a0 20 1c 1e be 16 56 a5 bd e8 0f 9e bb 3e a2 a2 3c
       -0.15440416 -0.0807306 -0.0048236735 0.019852754
0000b0 ba b5 65 be 03 03 11 be 28 ea 13 3d ba ce 60 bd
       -0.22432604 -0.14161305 0.03611198 -0.05488465
0000c0 e5 03 6a 3b 60 ca 53 3c f4 1e d9 bd 0b 18 c3 bd
       0.0035707888 0.012926668 -0.10601607 -0.0952607
0000d0 70 65 4b be 65 26 52 bd 38 f4 56 bd b6 cc 2b 3c
       -0.19862914 -0.051306147 -0.052479 0.010485819
0000e0 eb 67 ce bc dd bd ae 3c 96 e6 f5 bc d3 67 1f be
       -0.025196036 0.021330768 -0.030017179 -0.1556695
0000f0 1f 4a c9 bd 1f 1f 69 bd 8a 82 0b bc 9e 71 02 3d
       -0.098285906 -0.056914445 -0.00851501 0.031846635
000100 72 e4 86 3d 15 03 a6 3d 88 21 85 3d 43 04 08 c0
       0.06586541 0.081060566 0.06500536 -2.12526
000110 e7 7f b3 3d 9a ad 77 3d f6 14 18 3e 99 ab d3 3d
       0.0876463 0.060468294 0.14851746 0.10335464
000120 f9 1b cc 3d 41 82 cc 3d 6d c2 8c 3d 0b 56 7b 3d
       0.09966273 0.099857815 0.06873021 0.061361354
000130 e3 74 ab 3d 2c f2 b6 3d 1b c2 d2 3d e1 7f c5 3d
       0.08371904 0.08932909 0.10290929 0.096435316
000140 13 35 c8 3d ff b0 c7 3d 51 ba ad 3d a6 80 cc 3d
       0.09775748 0.09750556 0.08482803 0.09985475
000150 ad 45 31 c0 9a b3 83 3d c5 c2 2c 3d ae 60 d0 3d
       -2.7698777 0.06430741 0.042177934 0.1017469
000160 e9 1e a8 be e3 cd 14 3d f5 59 d4 3d 10 d8 15 3e
       -0.32836083 0.03632916 0.103687204 0.14633203
000170 83 7d b1 3d f4 e2 4a 3d d0 36 2a 3d 35 26 42 3e
       0.086665176 0.049532846 0.04155618 0.18959887
000180 e1 5f 1e be be 5f ed bd 13 c5 d6 bd b1 31 60 bc
       -0.15466262 -0.11590527 -0.10486808 -0.013683722
000190 f9 82 c0 bd c0 6b f1 bd 4a 74 d1 bc 00 24 eb bc
       -0.09399981 -0.1178813 -0.025568146 -0.02870369
0001a0 25 e3 a6 3c 90 dd 92 bc 2a 2e 87 bd 46 51 be bd
       0.020371983 -0.017927915 -0.06600602 -0.092928454
0001b0 e3 19 c2 3c f9 7c f3 bd b6 19 47 be 57 1d a5 3d
       0.023693984 -0.11889071 -0.19443402 0.08062237
0001c0 b8 16 54 be 81 cd 5d bd 48 73 e7 bd e8 21 80 bd
       -0.20711792 -0.054151062 -0.11301285 -0.06256467
0001d0 bd f7 93 bc a6 e4 96 3d 28 86 00 3d 29 f5 32 be
       -0.018062467 0.0736783 0.03137794 -0.17476334
0001e0 a8 b3 89 bc 19 8d 58 be 8f 67 7f 3c 04 c3 8b bd
       -0.0168093 -0.21147574 0.015588655 -0.06824306
0001f0 ab 4c f2 3c e9 e5 f5 bd 7a 26 0a be 03 a5 91 3d
       0.029577574 -0.120067425 -0.1349124 0.071115516
000200 1b 37 e7 3c f6 89 8d 3d a4 8e 85 3d ef c8 05 c0
       0.028224519 0.069110796 0.06521347 -2.090389
000210 37 09 b1 3d c2 8d c9 3d 3b a9 c3 3d e1 ed 93 3d
       0.08644336 0.09841491 0.095537625 0.07223106
000220 7f 95 00 3e c8 47 f8 3d 54 dc 53 3d c9 7f de 3d
       0.12557028 0.12123066 0.051723793 0.10864217
000230 83 e9 b9 3d 05 72 85 3d 7f b4 a4 3d a4 14 e7 3d
       0.09077742 0.06515888 0.080422394 0.11283234
000240 d6 be 2c 3e 93 57 0e 3e 64 90 11 3e 75 34 aa 3d
       0.16869673 0.13900594 0.14215237 0.08310787
000250 62 ad 4b c0 bd 52 ef 3d ff 57 e2 3d 69 6d 99 3d
       -3.1824574 0.11685703 0.1105194 0.074915715
000260 cb 90 b7 be f7 f8 a2 3d df 2d 24 3d af e8 ba 3d
       -0.35852656 0.079576425 0.04008281 0.09126412
000270 f8 58 95 3d a4 82 9a 3d a0 6a e8 3d 57 d2 c9 3d
       0.0729236 0.07544449 0.11348462 0.09854572
000280 b9 e9 94 3d d3 3b cb 3d 63 ab 18 3d 21 0a 2f c0
       0.072711416 0.0992352 0.037272822 -2.7349932
000290 d5 bc 84 3d 1b 81 87 3d 82 2a 07 3e f5 fc e4 3d
       0.06481329 0.06616422 0.13199809 0.1118106
0002a0 54 f5 e2 3d fa 41 d3 3d 2c 45 d5 3d 20 37 1d 3d
       0.11081949 0.103153184 0.10413584 0.03838265
0002b0 67 d8 de 3d 03 35 98 3d e5 c7 5b 3d d3 55 fc 3d
       0.10881119 0.07431986 0.05365743 0.12321057
0002c0 1d d9 0a 3e 9d 04 e5 3d a8 7b ea 3d ac 01 f8 3d
       0.13559385 0.111825205 0.11449367 0.12109694
0002d0 be fd 6f c0 5a 28 86 3d 25 5b 1b 3e 6f 7f f5 3d
       -3.7498622 0.06550665 0.15171488 0.11987197
0002e0 a5 fd a5 be 3b da d5 3d 3e e6 ee 3c b2 e0 e9 3d
       -0.32420078 0.10442015 0.029162522 0.1141981
0002f0 6e 84 ca 3d a6 f2 e0 3d 95 7e 87 3d 10 96 db 3d
       0.0988854 0.109837815 0.066159405 0.107219815
000300 f7 0d 74 bf cc 15 bb 3d 11 96 f4 3d d8 35 df bc
       -0.9533381 0.09135017 0.119426854 -0.027247354
000310 bd 78 86 bd 89 c7 db 3d 50 93 f6 be 66 f9 47 3e
       -0.06565998 0.10731418 -0.48159266 0.19528732
000320 03 1d 5f bf cb ec 71 bf c4 d4 55 3e 59 ef 9b 3d
       -0.87153643 -0.9450194 0.20881945 0.07614011
000330 f6 64 07 3e 18 5f d2 be e7 c6 98 bd 74 65 d3 be
       0.13222107 -0.41088176 -0.074598126 -0.4128834
000340 c1 d1 b3 3d 67 83 0d 3d 50 69 86 3d 2c 44 80 3d
       0.08780242 0.034549143 0.065630555 0.06263003
000350 27 5d 76 be 7c fc b1 3d bb 41 f0 be 44 bf 31 3e
       -0.24058972 0.08690736 -0.46925148 0.17358118
000360 87 e2 c7 3e 4e ca f0 be 7c 62 ef 3d a7 6f 30 bf
       0.39040014 -0.47029346 0.11688706 -0.6892037
000370 b4 22 c1 be 3a a4 76 bf 9f ca 23 3d a6 af 20 3e
       -0.3772179 -0.9634434 0.039988156 0.15692005
000380 d6 1e df bf bc 8a ad be d6 1b 61 be f9 ad 27 3d
       -1.7431285 -0.33894908 -0.21983275 0.040937398
000390 44 44 2d bf 57 84 3a be 21 6d f4 be 0a ba a3 3e
       -0.6768229 -0.18214546 -0.4773951 0.31977874
0003a0 1a 28 5d bf 9e 13 92 bf 46 96 d8 3e d2 e3 56 be
       -0.86389315 -1.1412237 0.4230215 -0.20985344
0003b0 69 ac a6 bf 4f c1 89 bf d0 89 f1 be fe ee 41 bf
       -1.3021365 -1.0762118 -0.47175455 -0.757553
0003c0 49 ae cc bd 36 94 24 bf 2f 83 15 bf 9e 8e 35 be
       -0.0999418 -0.6428865 -0.58403295 -0.17730185
0003d0 fd e9 f1 3e ba 51 6d be 0e 76 9b bf fe 77 f7 be
       0.4724883 -0.23175707 -1.2145402 -0.48333734
0003e0 76 d1 d8 bd 86 d5 ae bf 46 02 52 be 8d c7 9d bf
       -0.105868265 -1.3658912 -0.2050868 -1.2326523
0003f0 d7 f0 92 bf fd 4d 96 bf 15 85 45 be 32 74 87 3d
       -1.1479748 -1.174255 -0.19289048 0.06613959

layer2.bias f4 [8]
000000 15 ab e8 3d 66 e6 05 be 89 83 44 3d 23 dd 14 be
       0.11360756 -0.13076171 0.047977004 -0.14537482
000010 c7 eb 61 3d e6 a9 1c 3e 52 17 2e bf 33 64 4d 3f
       0.055156495 0.15299186 -0.68004334 0.80231017

layer3.weight f4 [1, 8]
000000 77 66 9a 3d 71 23 74 be 4b 45 96 3d 1c fb 14 be
       0.07539075 -0.23841645 0.07337435 -0.14548916
000010 3e 6f a1 3d 72 2e ab 3d 3d 59 3f bf 58 40 30 bf
       0.07882546 0.08358468 -0.7474554 -0.6884818
