regression_My_resnet.onnx (onnx, 4555 bytes, 6 tensors)

layer1.weight f4 [32, 14]
000000 51 38 0b 3e a5 35 fe bd 1a 93 2b 3e 00 de 99 be
       0.13595702 -0.12412576 0.16755334 -0.30052185
000010 b8 46 49 3e 03 aa 21 3d 7d ff 38 3f 8b dc 9f 3e
       0.19655883 0.039468776 0.72264844 0.31222948
000020 67 d0 0b bf 05 e6 23 be eb e1 ed be a4 5b 6d 3e
       -0.5461487 -0.16005714 -0.46461424 0.2317949
000030 c8 22 30 3e f4 ef 4f be c3 13 83 be cf d3 c5 3d
       0.17200768 -0.20306379 -0.25601014 0.0965954
000040 79 44 be 3d 29 b3 f1 3c 3a b3 f6 be 3c 40 70 be
       0.09290404 0.029504376 -0.48183614 -0.23462003
000050 bc fb 44 3e d4 e7 97 3f 61 a4 23 3d a7 94 54 be
       0.19236654 1.1867623 0.039951686 -0.20759831
000060 67 3f ad bd 45 7a d4 3e b6 4b 50 3e f6 5c 8b 3e
       -0.08459359 0.41499534 0.20341381 0.2721936
000070 cb e3 ad be 98 8c ec bd e2 8f 8b bd 80 1e 67 bf
       -0.33962855 -0.11550254 -0.06814553 -0.90280914
000080 d4 a6 bf be 6d a2 5e be 88 0b f1 3e fe aa d6 bc
       -0.37431967 -0.21741648 0.4707911 -0.026204582
000090 37 ff ba be ec 20 9f be aa 27 7f 3e be fc 85 be
       -0.36522838 -0.31079805 0.24917474 -0.2616939
0000a0 57 ca 3e 3f 8c 00 20 3e cb b6 1c 3f e2 6b 08 bc
       0.74527496 0.15625209 0.6121642 -0.0083265025
0000b0 80 3e 50 3e 91 ef da be 1a 12 68 be 91 f8 9b 3d
       0.20336342 -0.427609 -0.22663155 0.0761577
0000c0 ae 68 94 3c db fa 29 bf bb f9 c5 3e 08 e3 6c 3d
       0.018116321 -0.663984 0.38667092 0.0578337
0000d0 00 9e 82 3e a8 5b cf 3d 51 5b 24 3f bb 38 5d be
       0.2551117 0.10124904 0.6420184 -0.21603672
0000e0 9e d0 c5 3e c4 39 a4 be 03 f4 21 be 91 04 66 bf
       0.38635725 -0.32075322 -0.1581574 -0.8985072
0000f0 a1 59 60 3d 79 e0 5d be 11 59 9c 3d 40 69 12 3d
       0.054772977 -0.21667661 0.076341756 0.035744905
000100 e9 0d b8 be 23 b9 1f be 12 3a 82 bd fe b5 e2 3d
       -0.35948113 -0.15597968 -0.06358732 0.110698685
000110 e3 d4 84 3e 1f 3f 85 be 37 6a d9 bd eb d6 da bd
       0.2594367 -0.2602472 -0.10615962 -0.106855236
000120 99 74 b6 3d d3 e7 3a bf 62 39 c9 be 74 da 00 be
       0.08908958 -0.73009986 -0.39301592 -0.12583333
000130 34 de fd 3e b1 80 06 be eb 11 ac be 95 4c 4b be
       0.4958359 -0.1313503 -0.3360742 -0.19853432
000140 a5 1d 81 bc 2f 47 ce be f2 85 38 3f a7 4d 6f 3e
       -0.015761206 -0.40288684 0.72079384 0.23369466
000150 bb 0c af be 4b 62 89 bd cf 49 25 be e4 42 8d be
       -0.341894 -0.06708201 -0.16141437 -0.27590096
000160 ee 2c 02 bf a9 99 04 bf 98 24 f4 3d 92 33 23 3e
       -0.5084981 -0.51796967 0.11921042 0.15937641
000170 f9 48 ab 3e 3e 27 eb bc 79 43 62 be c7 8f 47 bf
       0.3345411 -0.028705236 -0.22096051 -0.7795376
000180 af 89 0c 3f 6c d1 28 3e b4 57 8a be 55 af 3e be
       0.5489759 0.16486138 -0.27020037 -0.18621571
000190 1b 74 09 be eb fd c3 bd 82 b6 82 3b 3b a7 af 3e
       -0.13423197 -0.095699154 0.003989042 0.34307274
0001a0 e5 33 b1 bd 8b db 05 bf c2 9b 84 3e bd 9a a6 be
       -0.08652476 -0.5228812 0.25900084 -0.3253993
0001b0 fd 90 0d bf 54 f3 62 be b3 12 9c 3e 7a bc 6f be
       -0.5529936 -0.22163135 0.30483016 -0.23411742
0001c0 fe d6 e2 be f0 5b 91 bc 77 aa c1 3e 3b 90 a3 bd
       -0.4430465 -0.017744035 0.37825367 -0.07986494
0001d0 ec e9 41 be 8a 1f ee be 41 59 45 3e 8f 66 f7 3e
       -0.1893689 -0.46508437 0.19272329 0.48320433
0001e0 8f 9d da be 40 ee 4e bd 9d 36 11 bf 54 27 31 3e
       -0.42698333 -0.05052018 -0.5672396 0.17300159
0001f0 ce 90 84 3e 8a 01 e0 3e 15 79 02 bf dd 97 a8 bd
       0.25891727 0.43751174 -0.50966007 -0.082320906
000200 99 f0 f2 be b9 c8 b0 bb 61 c6 1e bf ad b7 ef be
       -0.47449186 -0.0053950218 -0.6202145 -0.4681982
000210 d9 69 86 be 19 f1 3f 3f 0d 06 bf bc 56 9f 68 be
       -0.2625263 0.7497726 -0.023318315 -0.22717032
000220 5a d3 31 be 5d 92 1a be 31 6f 5d 3e fd d9 41 bd
       -0.1736578 -0.15094896 0.21624447 -0.04732703
000230 7a a6 46 3e 8d 64 4f be b4 58 2c bf 42 94 7f be
       0.19399443 -0.20253201 -0.6732285 -0.249589
000240 47 a2 7e 3d 17 ee 24 bf 15 31 90 3e 3a 22 8f 3e
       0.06216648 -0.64425796 0.28162447 0.279558
000250 a9 25 50 be ff c5 b2 be 54 c1 96 3d ad 2e d9 be
       -0.20326866 -0.34916684 0.07361093 -0.42418423
000260 b6 9f 96 3e 62 1c be 3d e4 c3 45 be a5 0e 85 be
       0.29418725 0.09282757 -0.19313008 -0.25987735
000270 e9 ec a3 be 9c 15 c0 bd 76 5b cf bb 93 03 17 bf
       -0.32016686 -0.09379122 -0.0063280417 -0.5898983
000280 39 cd bf 3e 5d a8 2c 3f 93 9f 9b be 99 2b b9 be
       0.3746126 0.674444 -0.30395183 -0.36166075
000290 de 6b 5d be c5 55 b7 be 98 d9 04 3e 5f 9c 09 3e
       -0.2162318 -0.35807624 0.1297363 0.13438557
0002a0 dc 67 8a 3e b0 f6 09 bc 84 01 af bd d0 3b 06 bb
       0.27032363 -0.008420631 -0.08545211 -0.0020482428
0002b0 58 f7 07 bf 6c 98 80 be 5a 6c 3a 3f 5b ca 36 3f
       -0.5311179 -0.2511629 0.7282158 0.7140252
0002c0 8b f2 92 3e a4 2c 27 bf 06 8f 00 3d f0 48 19 3f
       0.2870067 -0.6530249 0.031386398 0.5987692
0002d0 bb 29 99 3e b0 c1 e3 3d 33 e4 82 3e b2 18 47 be
       0.2991465 0.11120927 0.25564727 -0.19443014
0002e0 d8 53 dc bd e2 bd 48 3e 29 d5 b2 bd cd b0 c4 bc
       -0.107581794 0.19603685 -0.08732063 -0.024010086
0002f0 43 3d 03 3f 15 5d e6 3e b2 0e 5b be 0b 4d 43 bf
       0.5126535 0.4499289 -0.21392325 -0.76289433
000300 a3 3e 23 3e e7 d6 d4 3e f8 24 de be 04 70 8c bd
       0.15941863 0.41570207 -0.4338758 -0.06857303
000310 25 2d 03 3f 3c 59 fc be 57 40 8c be da c9 37 3e
       0.5124076 -0.4928683 -0.27392837 0.17948094
000320 3a d6 17 bf ac fb 2e be b9 b5 ff bd 1e bb a8 be
       -0.5931126 -0.17088193 -0.12485833 -0.3295526
000330 a5 2a 9a 3e 9c 2f e9 bd ab dd 1c be d7 be 87 bd
       0.3011066 -0.11386034 -0.15318935 -0.06628197
000340 1a ff b0 3e 1f 01 19 3e 7c c8 7a be aa 1c 3f 3e
       0.34569627 0.14941834 -0.24490541 0.18663278
000350 d5 14 30 be 9a e7 a3 3d 1a e9 ff be 1e 2c da 3e
       -0.17195447 0.08003159 -0.4998253 0.42611784
000360 4b c2 a9 be 9d 31 eb be b7 52 8d 3e fb 24 0c bf
       -0.33156046 -0.4593629 0.2760217 -0.5474393
000370 34 79 e3 bd 74 de 36 3e 50 bc 12 3f e4 d0 bb be
       -0.11107102 0.17858297 0.5731859 -0.36682808
000380 b8 56 81 bd 11 11 23 3c b2 e2 4f 3e b4 d6 20 bf
       -0.063153684 0.009952799 0.20301321 -0.6282761
000390 4f ed a5 3d f2 1b 16 be 30 d9 af 3e 1f 92 ee be
       0.08101904 -0.14659098 0.34345388 -0.46595857
0003a0 ba 50 84 be 48 ea 05 be 88 fa 12 bf f7 9e 1a be
       -0.2584284 -0.13077652 -0.5741353 -0.15099703
0003b0 0d 8d 18 3f 85 c3 8c 3e 87 98 87 3f 57 dd 8c be
       0.59590226 0.2749292 1.0593423 -0.2751262
0003c0 b5 0d c4 3d a9 ee 11 3e 9b a9 88 be a3 f5 47 3e
       0.09572927 0.14251198 -0.266919 0.19527297
0003d0 47 d9 45 39 f5 fa c8 ba f5 81 34 3f 8e af 5c be
       0.00018868326 -0.001533358 0.705108 -0.21551344
0003e0 6b 2c 1a bf 5e f4 f3 bd 97 a4 c6 3e 6d 18 b8 be
       -0.60224026 -0.11911844 0.38797447 -0.35956135
0003f0 3b 9f e6 bd 45 58 79 3e 0b 4b 08 bd e0 61 05 bf
       -0.112608396 0.24350078 -0.03327469 -0.5210247

layer1.bias f4 [32]
000000 52 d0 e0 3c c8 b7 b5 bc 5a 04 87 3c 7f 08 b9 bc
       0.027443085 -0.02218236 0.016481567 -0.022587059
000010 3f 41 1c 3e 33 a0 6c 3e a6 fe 32 bd d6 30 bc be
       0.15259264 0.23107986 -0.043699883 -0.3675601
000020 7a 83 0b bd 0c 49 4c 3e 18 db 1a 3e cd 65 93 3e
       -0.034060933 0.1994974 0.1512264 0.28788605
000030 e3 71 2f be ed d6 33 bf db b9 f9 bd 35 91 b9 be
       -0.17133288 -0.70249826 -0.12193652 -0.36243597
000040 a3 54 eb bd 5d 20 aa 3d ed 80 9e be 50 b6 bd be
       -0.114907525 0.08306954 -0.30957738 -0.37053156
000050 d4 00 85 bc 4a dd 2b 3e 27 a2 53 be 07 c0 86 3e
       -0.016235746 0.16783634 -0.20667325 0.2631838
000060 59 ea ad 3e f6 99 b6 3d 7c ad e4 bc 56 c2 a3 be
       0.33967856 0.089160845 -0.027914755 -0.31984204
000070 37 83 e6 be 54 df 35 be ce 50 66 3c f1 a8 4c be
       -0.45021984 -0.17760974 0.014057351 -0.19986321

layer2.weight f4 [8, 32]
000000 22 64 69 bf c6 21 14 bf 22 bf 72 bf 3e 37 1f 3d
       -0.91168416 -0.57864034 -0.94822896 0.038871042
000010 78 c7 b2 bf 83 ef a1 bf 19 d7 02 3d 2a d0 06 3e
       -1.3967123 -1.2651218 0.031943414 0.13165346
000020 3c 6b 70 bd 36 03 a4 bc 11 cb a7 be 81 4a a5 bf
       -0.058696017 -0.020021062 -0.32772115 -1.2913362
000030 9f 6c 8f be f0 a1 0e bf 37 b0 ba 3d bd 68 10 bc
       -0.2801256 -0.55715847 0.091156416 -0.008814034
000040 60 b5 83 bc 46 ab 6e bf b5 d5 92 bc 9c 5f db be
       -0.016077697 -0.9323009 -0.01792417 -0.42846382
000050 90 4a 83 bd a0 2f e3 bf 17 9a 39 be e5 09 49 bf
       -0.06410706 -1.7748909 -0.18125187 -0.7853072
000060 78 5e 15 bd 02 94 a7 bb f2 c7 66 bf f4 92 a7 bd
       -0.036467046 -0.0051140795 -0.9014884 -0.08182326
000070 a4 7d 95 bd d4 4d df be 87 39 51 be a6 a5 07 be
       -0.07299355 -0.43614066 -0.20432101 -0.13246784
000080 7d ec 47 bf 28 7f 4a bf 0d c2 a1 be b4 21 36 bf
       -0.7809523 -0.79100275 -0.31593361 -0.71145177
000090 55 9b 84 bf 0e 48 07 bf 4d ab f7 3c f4 00 83 bf
       -1.0359904 -0.5284432 0.03023305 -1.0234666
0000a0 10 52 f8 bc f1 f8 50 bf 91 d8 47 bf 75 32 0e bf
       -0.030312568 -0.81629854 -0.7806483 -0.5554574
0000b0 04 b0 a5 bd 05 65 4e bb b1 2f e0 3d 20 24 da be
       -0.08090213 -0.0031493318 0.109465964 -0.42605686
0000c0 ec 17 cd be 68 ec 73 bf 19 0e 99 3d 84 22 6e bf
       -0.40057313 -0.952826 0.07473392 -0.93021417
0000d0 df 1a 54 3d 96 7b 6d bf 66 e2 dc bc ed 16 01 bf
       0.05178344 -0.927667 -0.026963424 -0.50425607
0000e0 60 40 8d be 09 aa 1f bf 19 07 a8 3d 57 6d 8f bf
       -0.27588177 -0.6236883 0.08204479 -1.1205243
0000f0 40 e0 b0 3d 1b 8f 30 bd 67 e5 64 3d e7 eb 29 bf
       0.08636522 -0.043105226 0.055882838 -0.66375583
000100 38 05 65 3d 2c e7 4f bc 16 3e 1d 3d 19 02 b3 bd
       0.05591318 -0.012689393 0.038389288 -0.087406345
000110 d6 23 43 3d 78 be 5b 3d 55 91 dd bf 0c 8d 7b be
       0.047641598 0.053648442 -1.7309977 -0.24565524
000120 95 bc 93 bb 9c 62 bf bf 3e ba 8c bf 97 2b d8 be
       -0.0045085647 -1.4951968 -1.0994337 -0.42220756
000130 9a 51 bc be 68 e9 d7 bf d0 de 38 bd 18 73 0b bf
       -0.36781007 -1.6868105 -0.045134366 -0.54472494
000140 f4 0c 9b 3d c8 b0 27 bf fc 85 8e 3d 7c ff d3 be
       0.0757083 -0.6550412 0.06959149 -0.41405857
000150 43 fb c5 bf c6 25 f1 3c ae 99 0e 3d a7 d3 a2 3d
       -1.5467304 0.029436957 0.03481453 0.07950526
000160 a5 ad 9a bf 63 36 df bb 70 b1 c2 3d 59 87 db be
       -1.2084242 -0.0068119033 0.095065 -0.428767
000170 39 1f 5f 3c 79 69 49 bf 10 d7 c8 be 4a 31 7c be
       0.013618284 -0.78676564 -0.3922658 -0.24628177
000180 e6 43 f0 3d 23 26 13 bf eb 72 d6 bf 07 f4 8f 3d
       0.117317006 -0.57480067 -1.675382 0.070289664
000190 e2 e5 6f 3d 17 73 9b bd 34 18 96 bc 20 be c5 be
       0.058568843 -0.07590311 -0.018322088 -0.38621616
0001a0 cc 16 dc bf f2 ca 8a bd 10 3f 3e 3c 12 aa 80 bd
       -1.7194457 -0.0677699 0.011611715 -0.06282438
0001b0 15 e2 fe bf 00 9b b8 bf d9 6f e9 3d 6c 31 8c bf
       -1.9912745 -1.4422302 0.11398286 -1.0952582
0001c0 fb 88 e6 be 99 e4 ff 3b 96 6c 68 bf 37 39 5b 3c
       -0.45026383 0.0078092334 -0.9079069 0.01338034
0001d0 36 d7 26 3b e9 04 a7 3c 86 07 5a bf 67 fe eb 3c
       0.0025457866 0.020388084 -0.8516773 0.028807832
0001e0 9a 0b d9 3c a1 2b 60 bf 96 20 8a 3d 50 12 8c 3c
       0.02649479 -0.8756657 0.067444965 0.017098576
0001f0 c6 4b ff be fa a4 1f 3e 83 70 c0 bf 83 c5 b8 3c
       -0.49862498 0.15590277 -1.5034336 0.022555118
000200 d5 09 b0 bf 94 f4 01 bb 42 dc 6e bf 9f d9 e3 bf
       -1.3753 -0.0019829618 -0.93304837 -1.7800788
000210 6d 7e bc bd 14 e8 c4 bf 11 2c c6 3c d8 ea dd 3d
       -0.09203801 -1.5383325 0.024190934 0.108358085
000220 36 05 f4 bd 2a c5 dc bb de 79 7b bd a2 40 91 3b
       -0.119150564 -0.006737371 -0.06139552 0.0044327537
000230 bd 50 2b 3d dd 2d 17 3d 44 79 5a 3e c3 fe a8 bc
       0.041825045 0.036908973 0.21335322 -0.020629292
000240 d0 68 a5 bf ac aa 7c bf e3 97 6f 3c 72 33 9a bf
       -1.2922611 -0.98697925 0.014623615 -1.204695
000250 4a 5e 08 bf 13 ce 57 bf 04 e8 94 3d 5c 77 92 3d
       -0.53268874 -0.8429882 0.07270816 0.07151672
000260 7a d1 c3 3d 6e 77 37 bd 00 d9 8d bf 66 28 b3 be
       0.09561439 -0.04479163 -1.1081848 -0.3499176
000270 71 76 9f be 4c 67 21 3e fb c6 b5 bc c8 45 97 bf
       -0.3114505 0.15762061 -0.022189608 -1.181817
000280 06 9a 4f be b3 c1 22 bc 23 6a 4e be 86 e4 44 be
       -0.20273599 -0.009933877 -0.20157675 -0.192278
000290 a7 7f 2a bd 8d dd 0a be ce c9 1c be 81 14 a1 bc
       -0.041625645 -0.13561077 -0.15311357 -0.019663097
0002a0 87 33 9c bd 2b 6f 4f be 5a 5e d5 bc 52 fe ac 3c
       -0.076270156 -0.20257251 -0.026045967 0.021117363
0002b0 62 cf bc bd d0 c3 e3 bd 4e 95 e9 bb cc aa 45 3d
       -0.09219243 -0.11121333 -0.007128394 0.048258588
0002c0 bf cb 53 bd ea 7c eb bc 32 66 91 bd 92 19 5c be
       -0.05170798 -0.028746087 -0.0709957 -0.2149413
0002d0 36 b9 1a be fe 97 d5 3c af 26 ba bd 55 27 f0 bd
       -0.15109715 0.026073452 -0.090894096 -0.11726252
0002e0 53 b8 b7 bd ba 8d 45 bd 2b 18 4f bc ac 5c 32 bd
       -0.08970704 -0.048230864 -0.012640039 -0.04354541
0002f0 cb 81 e1 bd 6d 41 92 3c 0c c3 1c bd c4 7d 37 bd
       -0.11011084 0.017853463 -0.03827195 -0.044797674
000300 07 99 d2 bc bf d8 9d be 96 e7 15 bf 64 f4 39 bf
       -0.025707735 -0.30829427 -0.585565 -0.72638535
000310 71 60 ea 3c 93 ce 13 bf e9 41 43 3c 1b 26 a0 3d
       0.02861044 -0.5773708 0.01191757 0.07819768
000320 48 b3 84 bf f2 9f 1f bd d9 7e 8e 3d 64 91 24 3e
       -1.0367212 -0.038970895 0.06957788 0.16071087
000330 72 0e a3 be 9e 64 15 3e 8e 51 41 bf cf 1d 5f bf
       -0.31846958 0.14589164 -0.7551507 -0.8715486
000340 5a 88 b0 ba 79 0d 95 bf 0e a7 0e bf e3 9d 9c be
       -0.001346837 -1.1644737 -0.55723655 -0.30589208
000350 e6 e0 ce 3d a7 9f 37 3e 76 2e 9d bd 82 81 40 bf
       0.1010149 0.17931996 -0.07674877 -0.75197613
000360 3e cb cb 3c f8 98 18 3e 9a 1d d1 bd 40 cb a7 bf
       0.024877187 0.14902103 -0.10210724 -1.3108902
000370 f1 31 28 3e 2c cd 21 be ec b4 db be 8a 36 54 bf
       0.16425301 -0.15800923 -0.4291147 -0.8289572
000380 3d 68 cd be f0 75 bf bc c2 dc c1 be 2f 6c a7 be
       -0.4011859 -0.023371667 -0.37863737 -0.32699725
000390 77 04 a7 be f7 b9 af be a3 cd 66 bf 72 fa 66 be
       -0.32620594 -0.34321567 -0.90157527 -0.22556475
0003a0 53 ee c4 bb d2 2d d1 3c 1a 31 89 be 63 6e 30 bd
       -0.006009856 0.025534544 -0.26795274 -0.043074023
0003b0 f3 54 44 ba 5f 0a bc be 64 ff 14 bf de b1 12 3e
       -0.0007489465 -0.36726663 -0.58202195 0.14325663
0003c0 da 3e 68 bd c3 d6 38 be 3d 16 b4 be df 51 d3 bd
       -0.056700565 -0.18050675 -0.35173216 -0.1031835
0003d0 09 82 db be b3 ea 15 3d 4b f9 19 bf 2b f2 27 bf
       -0.42872646 0.03660078 -0.60146016 -0.65603894
0003e0 8b 8c 36 3b 44 8e c9 be b4 cc 82 3d 65 0a 81 be
       0.0027854766 -0.39366353 0.063867 -0.25203243
0003f0 3a c3 ac be de b4 b4 be b4 7a 16 be 38 2c 16 bd
       -0.33742696 -0.3529424 -0.14695245 -0.036663264

layer2.bias f4 [8]
000000 3d 45 ac 3e de cc 49 3e ed f2 83 3e 64 80 65 3e
       0.33646575 0.19707057 0.25771275 0.22412258
000010 12 eb 92 3e 62 2b e3 bd 71 93 05 bd ae 92 c1 bd
       0.2869497 -0.11092259 -0.032611314 -0.09451805

layer3.weight f4 [1, 8]
000000 7f 00 bf 3e 82 70 36 3f 8a 60 c1 3e d5 6d 93 3e
       0.37305066 0.71265423 0.37768966 0.28794733
000010 2f a9 73 3e f8 d2 eb bd 25 4f 86 be db ee 77 be
       0.23795007 -0.115148485 -0.26232257 -0.2421221

input_projection.weight f4 [1, 14]
000000 4d aa 82 bb d0 75 80 3b 1b c7 20 bc 4a dc 1a bc
       -0.0039875866 0.0039202943 -0.009813095 -0.009451935
000010 ec c8 dc ba e5 bf dd bc 31 8f b2 3c 4a 0c 8b 3c
       -0.0016844547 -0.027069042 0.021796795 0.016973633
000020 c0 66 f9 39 4d 22 46 bc 46 f7 05 bc 02 e9 38 3e
       0.00047569536 -0.012093139 -0.00817663 0.18057635
000030 06 13 2a 3f 92 17 26 3c
       0.6643528 0.010137456
