regression_MLP_net.onnx (onnx, 2959 bytes, 3 tensors)

layer1.weight f4 [32, 14]
-0.08553667 -0.018140638 0.021130228 0.028086308 0.028274003 0.05468007 0.013306588 -0.027317429
0.018170735 0.06495066 0.07611049 0.28232387 0.910555 0.095387645 -0.044338644 -0.25544214
-0.092811786 0.13290434 0.057871148 -0.0988387 -0.12577853 -0.023372639 0.32489243 0.22014442
0.37316078 0.45808607 1.240352 0.15761343 -0.0040529785 -0.2868288 0.105248496 0.11983572
0.21252255 -0.1189019 0.06539092 0.117260665 -0.30006182 -0.4843138 -0.13784662 0.94877785
3.561829 0.37673235 -0.32148376 -0.06969031 0.047647387 0.07296288 0.12710045 -0.18624446
-0.27727818 0.33506772 -0.21620604 -0.03286242 -0.11849117 0.6187551 3.219982 0.1636056
-0.09772761 -0.018922124 0.04543711 0.06657905 0.065543935 -0.11716159 0.05658219 -0.03221334
0.12212665 -0.010038011 0.053723305 0.25479814 1.0296199 -0.04633729 0.00021881027 -0.3967653
-0.17179832 -0.021431493 0.0806636 0.5232764 0.38975698 -0.03442865 0.4387739 -0.3547093
-0.28152776 1.4565212 3.205032 0.33136636 0.13143249 0.1023292 -0.10414183 0.20987101
-0.07049577 -0.21406703 0.13201524 -0.0932569 0.07844577 0.13617983 0.13857089 0.27948132
1.8238254 -0.2642916 -0.05870212 -0.23696111 0.1294374 0.13545863 0.14118838 -0.13209309
-0.07973212 0.2295207 -0.26573926 -0.20126851 -0.09772902 0.90510756 3.268801 0.2425736
0.0948789 0.016899163 0.019673333 0.10202113 -0.14644895 0.014253408 0.13533928 -0.07699207
-0.005500387 -0.004317058 -0.07736143 0.25123 1.2357011 -0.1254402 0.023837682 -0.024141012
-0.039578132 0.034495734 0.052682284 -0.060709424 -0.04606178 -0.02425244 -0.04205569 -0.07362296
0.018854268 0.2433231 0.86184543 0.02211099 -0.09218807 0.094978586 0.105256744 -0.03896371
0.011365027 0.07674609 0.013276419 0.123300485 -0.056479618 -0.018775338 -0.04702685 0.20784001
0.9726012 0.084035054 0.19369456 -0.2234435 -0.13385877 -0.22029184 0.07403581 -0.19702151
-0.23866144 -0.15985182 0.39286935 0.13176373 0.19831257 0.47968215 2.2445674 0.43245894
-0.0923894 -0.051713075 -0.031670168 -0.0038720095 0.03847352 -0.14094198 0.05132285 -0.015604416
-0.008279664 -0.0987323 0.0034736115 0.23045342 0.83963674 0.068556026 0.038938545 -0.12860228
-0.15417275 0.012342317 0.037186783 -0.2970509 0.0573733 0.06738678 0.014906967 -0.22607456
-0.02395779 0.22366378 0.8469399 0.07932582 0.025199773 0.38990438 0.05249767 -0.0773959
-0.052191634 0.31790435 0.041447777 -0.02473637 -0.20609434 0.070076 -0.28491575 0.5720663
1.1130459 -0.024902338 0.008342834 0.0060711065 -0.036017757 -0.07920898 0.027842356 -0.10097246
0.012071464 0.06793051 -0.009268659 -0.18505113 -0.11891568 0.25658345 0.8683606 0.05087795
0.02817498 -0.023717662 0.016680578 -0.083186105 0.031670902 0.08533613 0.034356084 -0.052954044
-0.036012787 0.09079116 -0.11982923 0.35119578 0.97918236 0.045620766 -0.08681923 -0.15938462
0.14185356 0.26796138 -0.24055825 -0.48175195 0.2553795 0.13018969 -0.07914909 -0.17446858
0.19075221 0.02080889 1.3417512 -0.037020605 -0.008403798 0.056185886 0.038401984 0.0050064656
00000000: da2d afbd ad9b 94bc 4d19 ad3c 4215 e63c
00000010: e29e e73c 36f8 5f3d e003 5a3c cdc8 dfbc
00000020: cbda 943c da04 853d d1df 9b3d c18c 903e
00000030: 221a 693f 995a c33d 709c 35bd 50c9 82be
00000040: 1b14 bebd 1318 083e 4c0a 6d3d f26b cabd
00000050: 16cc 00be fa77 bfbc 4d58 a63e 8a6d 613e
00000060: ee0e bf3e 428a ea3e dbc3 9e3f 6a65 213e
00000070: d9ce 84bb 39db 92be 868c d73d 6e6c f53d
00000080: 839f 593e d782 f3bd adeb 853d 5c26 f03d
00000090: b4a1 99be faf7 f7be aa27 0dbe 1be3 723f
000000a0: 02f5 6340 10e3 c03e 8599 a4be cbb9 8ebd
000000b0: e829 433d 906d 953d 9f26 023e deb6 3ebe
000000c0: 68f7 8dbe ff8d ab3e 1e65 5dbe bf9a 06bd
000000d0: 80ab f2bd bc66 1e3f 2f14 4e40 3a88 273e
000000e0: 6a25 c8bd 9202 9bbc 431c 3a3d 995a 883d
000000f0: e63b 863d 6af2 efbd bac2 673d 23f2 03bd
00000100: 891d fa3d 7876 24bc f80c 5c3d e774 823e
00000110: 96ca 833f 2ccc 3dbd 6f70 6539 d224 cbbe
00000120: e6eb 2fbe 1991 afbc f532 a53d 71f5 053f
00000130: 3a8e c73e 0e05 0dbd f9a6 e03e 759c b5be
00000140: 6824 90be 496f ba3f 3f1f 4d40 daa8 a93e
00000150: 3d96 063e f991 d13d 5048 d5bd 6de8 563e
00000160: 1660 90bd 6334 5bbe 012f 073e 79fd bebd
00000170: 2da8 a03d ba72 0b3e 87e5 0d3e 2d18 8f3e
00000180: 1c73 e93f 3b51 87be a271 70bd efa5 72be
00000190: 3d8b 043e abb5 0a3e b093 103e 6943 07be
000001a0: 984a a3bd 7907 6b3e fa0e 88be 5519 4ebe
000001b0: 2726 c8bd 21b5 673f 0934 5140 3765 783e
000001c0: de4f c23d 1d70 8a3c f829 a13c 74f0 d03d
000001d0: b7f6 15be 2087 693c 6196 0a3e 05ae 9dbd
000001e0: 973c b4bb 1b76 8dbb ab6f 9ebd 38a1 803e
000001f0: 742b 9e3f 6573 00be 3e47 c33c 5fc3 c5bc
00000200: ae1c 22bd 664b 0d3d 61c9 573d 72aa 78bd
00000210: 47ab 3cbd 0ead c6bc 9642 2cbd a2c7 96bd
00000220: 4474 9a3c b129 793e e7a1 5c3f 1b22 b53c
00000230: 19cd bcbd 2284 c23d d990 d73d 6998 1fbd
00000240: 6134 3a3c 0e2d 9d3d 5685 593c f784 fc3d
00000250: 2c57 67bd bdce 99bc 3a9f 40bd 03d4 543e
00000260: 64fc 783f 921a ac3d de57 463e 5fce 64be
00000270: 4612 09be 2f94 61be 16a0 973d 02c0 49be
00000280: aa63 74be 32b0 23be 2c26 c93e 12ed 063e
00000290: 7312 4b3e e698 f53e fea6 0f40 426b dd3e
000002a0: a736 bdbd 17d1 53bd 94b8 01bd 8ac1 7dbb
000002b0: 6996 1d3d 1853 10be e937 523d aaa9 7fbc
000002c0: 6ea7 07bc 2934 cabd 88a5 633b fbfb 6b3e
000002d0: 6ff2 563f 1a67 8c3d 067e 1f3d 51b0 03be
000002e0: 76df 1dbe 6e37 4a3c 2b51 183d 0e17 98be
000002f0: 4400 6b3d 1502 8a3d 5a3c 743c 1780 67be
00000300: 2143 c4bc 1e08 653e 0ed1 583f 9375 a23d
00000310: c16f ce3c 8ca1 c73e cc07 573d be81 9ebd
00000320: e5c6 55bd 5cc4 a23e 25c5 293d eea3 cabc
00000330: 650a 53be 0284 8f3d 7ae0 91be f072 123f
00000340: 4a78 8e3f fdff cbbc 62b0 083c 22f0 c63b
00000350: 5b87 13bd 5138 a2bd a715 e43c a6ca cebd
00000360: 64c7 453c 271f 8b3d 93db 17bc 0b7e 3dbe
00000370: 108a f3bd e85e 833e e14c 5e3f 6665 503d
00000380: 37cf e63c 8b4b c2bc b5a5 883c 7a5d aabd
00000390: 59b9 013d b5c4 ae3d f7b8 0c3d 57e6 58bd
000003a0: 2582 13bd b7f0 b93d 0769 f5bd efcf b33e
000003b0: b2ab 7a3f d7dc 3a3d 48ce b1bd b935 23be
000003c0: 0f42 113e 3c32 893e e754 76be 31a8 f6be
000003d0: 1ac1 823e 7250 053e eb18 a2bd e4a7 32be
000003e0: 8c54 433e 6877 aa3c 81be ab3f eba2 17bd
000003f0: 15b0 09bc 2c23 663d 664b 1d3d 470d a43b

layer1.bias f4 [32]
-1.414446 -0.56187665 4.0980177 3.1827798 -1.1099426 3.7536607 0.3896347 3.7245944
-0.6505931 -1.8167083 -1.4949479 1.1307156 -2.0395143 -2.4951396 -0.78791565 -1.9391727
-1.1712197 -0.77089673 -1.3193083 -1.7997072 -0.92315763 -1.4585398 3.0017781 2.2912781
-1.8253518 -1.3178773 4.4792027 0.8881959 -1.1221694 -1.7348795 0.248367 2.5121984
00000000: 910c b5bf 26d7 0fbf f622 8340 aab2 4b40
00000010: 9912 8ebf fa3b 7040 337e c73e c15f 6e40
00000020: 458d 26bf e689 e8bf 745a bfbf 4abb 903f
00000030: 6787 02c0 5eb0 1fc0 d7b4 49bf d036 f8bf
00000040: 87ea 95bf 7d59 45bf 18df a8bf ce5c e6bf
00000050: 0f54 6cbf 6fb1 babf 221d 4040 4da4 1240
00000060: 21a5 e9bf 34b0 a8bf a155 8f40 ce60 633f
00000070: 3fa3 8fbf 8810 debf eb53 7e3e dcc7 2040

layer2.weight f4 [1, 32]
0.15561017 0.091159575 0.06858031 0.072364904 0.122023284 0.06947233 0.074178495 0.06024709
0.09859496 0.20355634 0.16993831 0.05880796 0.21425259 0.31527072 0.1140165 0.21523689
0.13620716 0.10822025 0.1354542 0.19019546 0.11482091 0.15501721 0.062069066 0.06917955
0.20514116 0.15387638 0.06724174 0.08104948 0.12624942 0.20152977 0.07763237 0.07506833
00000000: 4658 1f3e dfb1 ba3d d573 8c3d 0d34 943d
00000010: 58e7 f93d 8247 8e3d e5ea 973d a7c5 763d
00000020: 28ec c93d 1371 503e 4f04 2e3e 9ee0 703d
00000030: 0865 5b3e 2a6b a13e 7c81 e93d 0f67 5c3e
00000040: e479 0b3e 94a2 dd3d 81b4 0a3e 99c2 423e
00000050: 3a27 eb3d d5bc 1e3e 223c 7e3d 02ae 8d3d
00000060: 8610 523e c591 1d3e 0ab6 893d 45fd a53d
00000070: 8747 013e d25d 4e3e b8fd 9e3d 6dbd 993d
